etc/reference_codes/data/policies/policy save filename.pkl (torch, 14999 bytes, 6 tensors)

weight f4 [50, 3]
000000 22 53 6e 3f 16 16 7a 3f 3f 60 62 3e 89 4a 51 3e
       0.930956 0.9768995 0.22107027 0.20438589
000010 c5 e8 07 bf 69 dd dd bb 11 e1 48 bf cb c0 9d 3f
       -0.53089553 -0.006770779 -0.78468424 1.2324461
000020 1e 1a e6 3d 33 f5 00 3f c8 c3 00 c0 1a 23 8d 3e
       0.1123545 0.50374144 -2.0119495 0.27565843
000030 bf 3e 01 bf 47 7e b5 be 6a 88 6f bf 75 8c 5f 3d
       -0.5048637 -0.35447904 -0.93567526 0.05457731
000040 7b 1b 03 3f 20 5f fb 3e ae 4a f9 bc 73 ba 24 40
       0.51213807 0.49096012 -0.030431118 2.57388
000050 64 b7 08 3f da 2f 07 bf 82 ec b2 bf 74 a9 36 be
       0.5340483 -0.5280739 -1.3978426 -0.17838079
000060 1c 2d a0 be df 86 c9 3f 2e 59 30 3d ff 56 f8 be
       -0.31284416 1.5744284 0.0430538 -0.48503873
000070 71 53 3a bf 1b 4a 9b 3e db 0d 80 3f 36 eb 86 be
       -0.7278357 0.30329975 1.0004228 -0.26351327
000080 73 2e a4 be 4b 34 ef 3d 05 7e f5 bc 01 bc 05 3c
       -0.32066688 0.11679896 -0.029967317 0.008162499
000090 50 fa 15 3d a5 bc c9 3f 9b b6 04 3e 6c f2 73 3d
       0.03661567 1.5760695 0.12960283 0.059557363
0000a0 5a 68 0a 40 3f b3 f3 3e a8 7f 30 3d 24 46 34 3e
       2.162619 0.4759769 0.043090492 0.17604882
0000b0 20 b1 9a be aa 0d 1e 3e 56 8d eb 3f 1c 50 0e 3f
       -0.3021326 0.154349 1.8402507 0.5559099
0000c0 7d 7e 4b be 4d 8a 73 3f 2b 13 39 3e af 89 a3 3d
       -0.1987247 0.95132905 0.18073718 0.079852454
0000d0 4d 64 42 bf 12 0e b7 bd 5e ef 10 bf 2e 5a 56 bf
       -0.75934297 -0.089382306 -0.56615245 -0.83731353
0000e0 da b7 7f 3e e1 8a 8d be 88 10 c3 be 8b ba 9f be
       0.24972478 -0.2764502 -0.3809855 -0.31197008
0000f0 47 3d 29 3e b0 ca 05 40 3e f1 79 3e 88 41 2c be
       0.16527282 2.090496 0.24408433 -0.16821873
000100 62 4a 1d 40 a2 cb 02 3f 7e d0 3f bf 6c 8c 35 bf
       2.457665 0.5109197 -0.7492751 -0.7091739
000110 7a 77 5b 3d cc 9e b9 bd 37 de 85 bf f4 25 d1 be
       0.05358074 -0.09063491 -1.045844 -0.40849268
000120 b7 40 66 3e 03 86 94 3e 85 26 9b 3e c1 ff d8 bd
       0.22485624 0.29008493 0.30302826 -0.10595656
000130 c5 26 9d 3f b0 44 ad 3e 05 db f2 3d fe f9 a7 3f
       1.2277457 0.33841467 0.11858181 1.3123167
000140 be af a9 bc b9 d4 9f 3f e8 81 86 3f c6 d6 b0 3d
       -0.020713683 1.2486793 1.0508394 0.08634715
000150 c4 70 5f 3e ff d2 ca bf 28 df e3 3d fa 43 fc 3d
       0.2182036 -1.5845641 0.11126548 0.12317653
000160 70 2e 50 be 1a 48 2d bf b2 62 61 be 06 f0 be bf
       -0.20330215 -0.67688143 -0.22010306 -1.4916999
000170 bf 09 b3 be 52 3f 0a be c5 d9 b0 3f be 3f c8 3e
       -0.34968373 -0.13500717 1.3816458 0.3911113
000180 78 cc e7 be f3 f9 03 40 ac 03 d1 3d 02 32 1d bf
       -0.45273185 2.0621307 0.102057785 -0.6140443
000190 1c 6b 25 bf d1 28 c9 bd 71 5c d9 3c 0b aa c3 bd
       -0.6461656 -0.09822238 0.026533337 -0.095539175
0001a0 ca c0 57 bb 93 fc 2e bf 5f 79 51 bf f3 d2 db 3e
       -0.0032921308 -0.6835415 -0.8182582 0.4293438
0001b0 34 f1 22 bd c3 45 8c bf 39 3a 01 bd b9 b0 0f bf
       -0.03978081 -1.095879 -0.031549666 -0.5612903
0001c0 59 16 a8 bf d1 1b 84 3e 3e 81 c2 3e 7d 35 d3 bf
       -1.313182 0.25802472 0.3798923 -1.6500698
0001d0 de 99 eb be ea dc e3 bd 51 6d d4 bf 0e 58 53 be
       -0.4601583 -0.111261204 -1.6595861 -0.20639059
0001e0 75 68 db bd ac 12 b0 3f d3 a8 11 be 78 b6 a4 bd
       -0.10713283 1.3755698 -0.14224558 -0.08042616
0001f0 e8 4d a7 bf 6c 81 0e 3e 26 54 fe bd df 17 cb be
       -1.307065 0.13916558 -0.12418394 -0.3966665
000200 8b f2 1a be c9 00 22 bf d8 35 6f bf e2 41 e2 bd
       -0.15131585 -0.6328245 -0.93441534 -0.110477224
000210 92 af db 3e de a6 eb bf e2 ea 98 be 43 64 16 bf
       0.42907387 -1.8410299 -0.298667 -0.5874674
000220 e3 e0 f0 3d f2 5e 61 3e e9 b9 c9 be 26 b6 9a 3f
       0.11761644 0.22008875 -0.3939965 1.2086837
000230 11 5a b6 3e a2 4d 9c 3e af 15 0f 40 e4 54 09 3e
       0.3561559 0.3052798 2.2356985 0.1341129
000240 23 57 22 be 1b 19 58 3f 3b 24 f5 3e 20 6f 00 3e
       -0.15853553 0.8441331 0.47879204 0.12542391
000250 19 38 79 bf eb f2 32 bf
       -0.97351223 -0.69901913

bias f4 [50]
000000 1b cb 4c bd 2f 69 46 be dc 69 d5 3e f4 5c bd 3e
       -0.049998384 -0.19376062 0.41682327 0.3698498
000010 a7 b7 0e 3f 9c 80 4b 3e b9 ec 15 bf 15 e3 0d 3f
       0.5574898 0.1987328 -0.58564335 0.55424625
000020 86 51 9b 3e c3 c5 bf be 79 b4 1d 3e c6 88 42 be
       0.30335635 -0.37455568 0.15400876 -0.18997487
000030 85 64 b8 3d cb 44 e8 be a5 7f a5 3e 55 8d 38 3e
       0.090035476 -0.45364985 0.32323948 0.18022664
000040 56 21 8a be 71 06 0a 3f 6d 68 38 bf 11 e8 b2 be
       -0.26978558 0.5391608 -0.7203434 -0.34942678
000050 3b 16 4a 3e 01 a8 29 bf 7c 5f 0e bf b7 9c b5 3e
       0.19735043 -0.6627198 -0.5561445 0.35471126
000060 b0 6d 6e 3c 82 ff 0e 3c 7e f1 5d 3e f7 75 bb 3e
       0.014552519 0.00872791 0.21674153 0.36613438
000070 73 9b c8 3e 21 66 44 3f 24 a4 4f 3e 7f a0 f8 3e
       0.39181098 0.76718336 0.20277458 0.4855995
000080 2b 32 00 37 67 54 16 3f e9 ad f2 be 1c 62 08 bf
       7.641075e-06 0.5872254 -0.47398308 -0.53274703
000090 40 86 84 3e a6 60 88 3e 69 35 d5 3e af c6 2e 3f
       0.25883675 0.26636237 0.4164231 0.6827192
0000a0 41 57 18 3f 36 26 a5 3e 6b ed 4a be c5 f4 e0 3e
       0.5950814 0.32255715 -0.1981713 0.43936744
0000b0 c8 05 9e 3e 61 e9 ca 3e 9b 08 1c 3f 92 ab a5 3e
       0.30863786 0.3963118 0.6095063 0.3235746
0000c0 50 08 f3 3e 3e f4 4c 3f
       0.4746728 0.80060184

weight f4 [50, 50]
000000 43 db 26 bd 35 7b c1 3c 13 a4 a6 bc 7b 10 3e 3d
       -0.040736448 0.02361832 -0.020341909 0.046402436
000010 6c b8 22 3d 99 b0 0e be 8d 04 db bc e9 dd a0 3d
       0.03972666 -0.13934554 -0.026735568 0.07854826
000020 c9 0f 03 be 9c 7c 04 bd 0f 3d 65 3b 3e 15 ed bb
       -0.1279899 -0.0323454 0.003497902 -0.0072351983
000030 40 02 e9 bd 34 2e f4 3d ed 68 41 bd 2e f2 53 bd
       -0.11377382 0.11922875 -0.047219206 -0.051744632
000040 13 62 3b 3d 23 f9 d0 bd 44 b4 2f 3c 0a 7c 5e bd
       0.045747828 -0.10203769 0.010724131 -0.05431751
000050 b2 fe b2 3d 7f 7a 00 3e c4 b7 01 3e 3b 28 b0 3c
       0.087399855 0.12546729 0.12667757 0.021503558
000060 b4 94 f1 bd d2 71 cc 3c 5e e5 97 bd f4 9f 73 bd
       -0.11795941 0.024956618 -0.07416795 -0.059478715
000070 29 b0 b6 bd bf ac 99 bd bf b5 a0 3d 58 30 d5 3c
       -0.08920319 -0.07503652 0.07847165 0.026024029
000080 f9 ae 07 be 8e c9 1e bd 03 9e 0c be 6e da dc bd
       -0.1325034 -0.038766436 -0.13732152 -0.1078385
000090 2b 57 e3 bd b9 0f 2f 3d ab b5 9c 3c f9 a7 e4 3d
       -0.1110061 0.042739604 0.019129595 0.11164851
0000a0 c7 e5 c8 bd c6 68 ce 3d 83 a4 fe 3d 77 1c 31 bc
       -0.098094516 0.10078578 0.12433722 -0.010810009
0000b0 c3 7a 10 be 2f 53 ca bd 51 f0 b1 bc ad 98 d5 3c
       -0.1410933 -0.09879147 -0.021721037 0.026073778
0000c0 64 a7 aa bc 5d 8f 0f be 78 59 25 3e 7d 31 ad 3d
       -0.020831771 -0.14019533 0.16147411 0.08456705
0000d0 81 85 22 3e be 48 93 be 85 96 05 bd 90 63 38 3e
       0.1587124 -0.28766435 -0.03261425 0.1800673
0000e0 c4 e2 03 3e 03 63 ba be e9 e3 b5 3d 86 d2 5f 3e
       0.12879473 -0.36403665 0.08881361 0.21857652
0000f0 e4 1c a1 bc 59 ea ea bd 30 81 b7 3d b6 d6 97 3d
       -0.019667096 -0.114704795 0.089601874 0.07414
000100 e7 9b 87 be 7f 57 c4 3d 81 eb 85 3e 92 70 2b be
       -0.26486132 0.09587001 0.26156238 -0.16742161
000110 4e 7a f0 3f f8 4f 36 3d 9e 81 5d 3e b3 b8 97 3e
       1.8787324 0.044509858 0.21631476 0.29633102
000120 45 3f e2 3f cf 7e 5b 3b 4f 8c 6c 3d e6 fe 1c 3e
       1.7675558 0.0033492332 0.057750996 0.15331611
000130 6a 4e 5d 3e 98 1a 07 be 49 20 e8 be ed 13 52 bd
       0.21611944 -0.13193738 -0.45337132 -0.051288534
000140 8e 22 70 bd 18 c9 c8 3d a3 a3 a2 3e a0 0a 1d bd
       -0.058626704 0.098039806 0.3176547 -0.03834021
000150 50 3b df bc 2f 15 74 3e 84 a0 fa be a2 40 bb bd
       -0.027249962 0.23836206 -0.4895059 -0.09143187
000160 93 c6 51 be 80 db 03 bf d3 1a d6 3d 4e 63 2e be
       -0.20485906 -0.51506805 0.10454335 -0.17030069
000170 41 c9 08 3e c4 81 92 be a2 d5 9d 3d ff 53 3b bd
       0.13358022 -0.28614628 0.07706763 -0.0457344
000180 ea 3c 9a 3c 06 18 45 3d 19 6f 3b 3e 0c 39 18 be
       0.018827874 0.048118614 0.18304099 -0.14865512
000190 1b 5f 2f 3e f5 50 76 bb fe b3 24 3e c5 39 eb be
       0.17126124 -0.0037584875 0.16084287 -0.45942512
0001a0 63 95 47 3e ca ef d4 ba 3e 60 42 3e b9 70 a0 bd
       0.1949058 -0.0016245779 0.18982026 -0.07834
0001b0 0c 0b eb 3a a1 f6 23 bd 76 b8 8f bf 2f 64 b5 3d
       0.0017932369 -0.040030126 -1.1228168 0.08856999
0001c0 90 a9 24 bc da b7 7b 3e 3b 3b b3 3e 61 2f fe bc
       -0.0100501925 0.24581853 0.35006127 -0.031028451
0001d0 12 b7 a2 3e b0 e0 ce 3d da c2 10 40 f3 af 1e be
       0.31780297 0.101014495 2.2618928 -0.15496807
0001e0 5a 17 d0 3d 66 43 51 3e c9 49 1f 3e 08 65 69 3e
       0.10160704 0.20435867 0.1555549 0.22792447
0001f0 b7 f8 4a 3b 21 b3 e7 3c 68 17 08 3e c7 9b fa 3d
       0.0030971 0.028283658 0.13290179 0.122367434
000200 2d 45 91 be 3c c6 60 3e 64 b7 97 bd 11 0f 0f 3e
       -0.2837309 0.2195062 -0.07408026 0.13970591
000210 b0 98 51 3e 00 23 f3 bb 17 24 17 bd c7 ec 8a 3d
       0.20468402 -0.007419944 -0.036899652 0.06783443
000220 59 99 b4 bd bb 62 eb 3c 36 2e 12 3f 14 3f 0d be
       -0.08818311 0.028733602 0.5710176 -0.13793594
000230 02 b9 54 3e fe 95 18 be 37 47 8e bc ca 69 3b be
       0.207737 -0.14900967 -0.017367942 -0.18302074
000240 0e 16 9e bf e1 ba b1 3c 41 a5 d4 bd 38 d5 17 3e
       -1.235048 0.021695556 -0.10383082 0.1482743
000250 3c b1 9d 3d 73 07 ca 3e 0b ec 9e 3e 2f b3 cc bd
       0.076998204 0.39458808 0.31039461 -0.09995114
000260 50 2a 67 be 79 54 87 3e 1b 6a 33 3e 57 86 a4 3d
       -0.22574735 0.26431635 0.17520945 0.08033436
000270 2d 5f 31 be b1 ca 0d 3e 61 9d 9b be 95 4a a0 bf
       -0.17321463 0.13846852 -0.30393508 -1.2522761
000280 7d 0b e0 3f e9 28 91 bd 30 a7 82 be e3 96 7d 3c
       1.7503506 -0.07087881 -0.2551818 0.015477869
000290 bc 1a 66 3e 7a 6b 9a 3c 61 75 29 c0 a3 12 41 3e
       0.22471136 0.018850077 -2.6477892 0.18854766
0002a0 6e ae 68 bd 9d 07 60 3d 8c 5d 4a be e8 d0 13 be
       -0.056806974 0.05469476 -0.19762248 -0.1443516
0002b0 8f f1 60 be 79 8e 6b 3e 79 01 a5 3d 37 cf 9e 3b
       -0.21967147 0.23003568 0.080569215 0.0048464793
0002c0 78 04 51 be 3f f8 98 3e d3 95 9d 3e 6f a9 c3 3d
       -0.20411861 0.29876897 0.3077837 0.09553801
0002d0 4c 46 22 3e 34 d5 93 bd 91 0b 87 bf e6 8f 5c be
       0.15847129 -0.072184 -1.0550405 -0.21539268
0002e0 d6 39 d4 3d 4e 17 b8 bf e1 e9 5b 3e b8 c1 cb 3d
       0.10362594 -1.4382112 0.21475936 0.09949058
0002f0 8e 33 9c 3e 7d 41 06 3e 98 5b ff bd 87 6d 00 3e
       0.30508083 0.1311092 -0.12468642 0.12541781
000300 e2 1a e0 3d f5 1c d9 3d 8c 2d 90 3f b3 9c 92 bd
       0.109426275 0.10601226 1.12639 -0.07158794
000310 1e e2 f4 3c 24 f3 26 be 66 5b c2 bd 25 3c 71 3e
       0.029892977 -0.16303688 -0.09490089 0.235581
000320 57 b0 23 3c 6d be ec 3d 25 d1 d1 3d 86 52 a6 be
       0.009990773 0.11559758 0.10244969 -0.32484835
000330 6a 75 63 3e 88 41 01 bd 02 19 aa 3e 4c cb 55 be
       0.22212759 -0.031556636 0.33222204 -0.20878333
000340 c8 4c b1 3d a8 43 2b 3e ec 94 1e bf 52 48 6c bc
       0.08657223 0.16725028 -0.61945987 -0.014421539
000350 92 92 58 bc 41 ef cc 3d a6 67 80 3e 59 41 c3 3c
       -0.013218539 0.100065716 0.25079077 0.023834871
000360 50 66 e2 3e 28 a0 40 3c 6e fb 0c 40 d4 95 0e bd
       0.44218683 0.011756934 2.202846 -0.034810856
000370 76 69 f0 3d 04 6b ac 3d 13 cb 4b 3d f1 ae 23 3d
       0.11738865 0.08418849 0.049754214 0.03996176
000380 44 db 53 bc 18 f4 22 3e 42 f8 19 3e c4 f8 cc bc
       -0.012930695 0.15913427 0.15036109 -0.025020964
000390 56 52 a6 be d8 9b ae 3e 84 4e d5 3d ce 9e 73 3d
       -0.32484692 0.34103274 0.10415366 0.05947762
0003a0 48 a9 f3 3d bc e1 50 bd a2 f9 b1 bd 65 9b 21 3e
       0.11897522 -0.050996527 -0.08690192 0.15781935
0003b0 b2 57 d3 bc 26 17 63 be 2c 30 ad 3e 29 e5 47 be
       -0.025798652 -0.22176799 0.33825815 -0.19521011
0003c0 84 34 4d 3e 54 97 ba bd bd 0d 28 bd cd 19 1c be
       0.20039564 -0.09110895 -0.041028727 -0.15244217
0003d0 c6 83 9b bf c9 31 c8 3d f1 e6 b4 3d bd 71 2e 3e
       -1.2149589 0.09775121 0.08833111 0.17035575
0003e0 c6 62 e4 3d 2a 5a 87 3e 90 47 86 3e 0d ca ff bc
       0.11151652 0.26435977 0.26226473 -0.031224275
0003f0 31 d7 45 be 01 68 93 3f ef f8 ac bc 57 72 72 3d
       -0.1932037 1.1516114 -0.021114795 0.059191074

bias f4 [50]
000000 84 17 dd bd 60 6a ca bc b9 4f cc 3d d6 2f 56 3e
       -0.10795501 -0.024708927 0.099761434 0.20916685
000010 d7 14 0c 3e 7e 48 05 3e 38 ec c0 bd f9 c3 a8 bd
       0.13679825 0.13015935 -0.09420055 -0.08240504
000020 94 2a 09 be 43 02 2a 3e 42 4d a7 3d f4 16 18 3d
       -0.13395149 0.16602425 0.08169033 0.037131265
000030 08 ea 6f 3e df fd 8b bd 17 cc ef 3d 96 ac 79 bd
       0.2342912 -0.068355314 0.11708849 -0.060955606
000040 ea 81 49 3e 8a 9e 12 be 00 c0 83 3d 9a 8e 49 bd
       0.19678465 -0.1431829 0.064331055 -0.04920826
000050 88 69 07 be eb d8 ed bd cd 6e ba bd 97 19 21 bd
       -0.1322385 -0.116136394 -0.09103165 -0.039331045
000060 b4 59 59 3d d9 23 a7 3e ca fa a7 bd db d2 02 bc
       0.053064063 0.32644537 -0.08202131 -0.007984842
000070 4d e3 97 3d 2f c1 0f be 32 a0 09 bd 85 0c 46 3d
       0.07416401 -0.14038537 -0.03360004 0.048351783
000080 eb 15 1c bd 21 22 e1 3c 5c 67 9b bd 38 df c1 bd
       -0.03810684 0.027482094 -0.075880736 -0.09466404
000090 57 fc 21 bd 0c 9a 04 be f6 31 97 3d e0 10 c1 3d
       -0.03954729 -0.12949389 0.07382576 0.09427047
0000a0 ec 08 ca 3c 52 5e 22 3e ee 6f 12 3e 08 fd a5 3d
       0.024662457 0.15856293 0.1430051 0.081049025
0000b0 74 cb dc 3c 0f 60 6a bd d6 a6 0e 3e ab 7e 1b bc
       0.026952483 -0.057220515 0.1393083 -0.009490649
0000c0 ee 01 e0 bd 58 21 39 3e
       -0.10937868 0.18079126

weight f4 [3, 50]
000000 66 44 89 bd 45 90 e9 bd 6f 8c dd bd 01 8d b1 3f
       -0.06702499 -0.1140447 -0.10817801 1.3871156
000010 d3 eb f4 bd ac 1f 12 40 8b 14 b5 bc 00 a3 77 3e
       -0.119590424 2.283183 -0.022104522 0.24183273
000020 6a fa bc bd 57 a5 91 3d 33 f3 c6 3e 0a 56 ca 3e
       -0.0922745 0.07111614 0.3885742 0.39518768
000030 39 7e b5 be e0 98 bb 3b 68 27 8a be 18 2c 9d bd
       -0.35447863 0.005725011 -0.2698319 -0.07674426
000040 d1 4c ca be cd f1 cf bd d2 96 b8 be 58 a9 84 bd
       -0.3951173 -0.10153542 -0.36052567 -0.06477612
000050 7e 7a d6 bd 91 cf a7 3c 45 8a bf bd 36 d6 88 3e
       -0.10472582 0.020484718 -0.09352545 0.2672593
000060 fc 16 9b 3e ca 26 ed be 10 14 87 bd 5d ef a8 3d
       0.30290973 -0.46318656 -0.065956235 0.0824878
000070 6b 10 0e 3e c3 de 6f 3c 1c 35 b5 3c 0b 96 6c 3d
       0.1387345 0.014640513 0.022120051 0.05776028
000080 db 5b 56 3d c4 4f bd 3d 6d 17 9d 3b 6f 3c 55 3c
       0.052333694 0.0924373 0.0047940523 0.013014897
000090 90 2b 82 3e 9a 49 4b 3e 61 a9 aa be a4 6c 20 3f
       0.2542386 0.19852296 -0.3333235 0.6266577
0000a0 50 e9 fb 3d 83 cf 44 3e 56 fb 9d be 4e 34 cb be
       0.1230036 0.19219784 -0.30855817 -0.39688343
0000b0 1f f9 0a be 0a 5e ae 3b 29 b4 7a be a2 12 e6 3b
       -0.13571595 0.005321269 -0.24482788 0.007021264
0000c0 ef 83 bd 3d 18 05 6c 3e 1e ef 8b bd f7 72 15 bf
       0.0925368 0.23048818 -0.06832717 -0.5837855
0000d0 ab 12 ac be cc 6e 46 3f 77 6c c4 be cb 3e 55 bf
       -0.33607993 0.7751281 -0.38364002 -0.8329894
0000e0 9b cd 93 bd 96 43 85 bf d2 37 a0 3b 26 9e 14 3f
       -0.072169505 -1.041125 0.004889467 0.58053815
0000f0 04 b2 37 be 55 95 ba 3e 59 b8 46 3e 7c 90 c7 be
       -0.17939001 0.36442056 0.1940626 -0.3897742
000100 84 5b 6f be 68 b7 10 3e 2c 52 8c bd bc c1 c6 3d
       -0.23374754 0.14132464 -0.068516105 0.09704921
000110 d3 15 3a 3d fe fa d1 3b cd b0 03 3d 05 d3 c0 3c
       0.04543097 0.0064080944 0.032151032 0.023538122
000120 ba 7d d4 3d 47 6d c8 be 81 91 1e be a7 50 a2 3e
       0.10375543 -0.39145872 -0.15485193 0.31702158
000130 8f d7 de bd ec 1c b3 3d 47 62 06 3e 8b 9b 3a bd
       -0.10880958 0.08745751 0.13123427 -0.045558494
000140 bd 6b dd 3c 53 90 22 bf c9 16 cd 3c 7a bd c4 be
       0.027028913 -0.6350147 0.025035279 -0.3842581
000150 22 23 9a 3d 40 b2 99 bb f2 16 5a 3e 16 33 83 be
       0.07526232 -0.0046904385 0.21297815 -0.25624913
000160 af 4b 88 be 31 48 4f c0 af 9d d4 bd 12 6c 0b 3f
       -0.26620242 -3.2387812 -0.10381638 0.5446178
000170 39 40 3b 3d bb f8 0b 3d 43 07 c6 be c6 c3 ee 3d
       0.045715544 0.034172755 -0.38677415 0.116584346
000180 5b ee ce bd 82 ec e9 3d 33 de 26 bf 8e 74 d5 3e
       -0.101040564 0.114220634 -0.651828 0.41690487
000190 ac f2 ca bb 73 6b 9d 3e c4 fc 87 3e d9 aa 84 bf
       -0.0061934795 0.3074604 0.26560032 -1.0364639
0001a0 78 05 8f 3e 2c b4 04 c0 07 c4 58 3d 3c 64 4b 3e
       0.2793386 -2.0734968 0.05292132 0.19862455
0001b0 e1 ba fa 3d b5 35 be be 0c fe 5e be 44 42 df be
       0.122426756 -0.3715035 -0.21776599 -0.43605244
0001c0 5d 36 30 3e d5 96 97 3e a0 01 10 3e b3 a8 aa bc
       0.17208238 0.29607263 0.1406312 -0.020832395
0001d0 6b a1 65 3e a0 ee 02 bc 49 a3 41 3e e2 94 68 3b
       0.22424857 -0.007991463 0.18909945 0.0035489132
0001e0 86 07 ce bb 7b ee 43 bb 5c 7e ac bd 6a 89 e0 3d
       -0.006287518 -0.0029896784 -0.08422539 0.1096371
0001f0 c5 96 c5 bd 7e 91 f3 3d b7 3a a4 bd 40 f1 98 3d
       -0.09647898 0.11892985 -0.080190115 0.0746789
000200 fd 4f 67 bd 9e ff 26 bd 72 00 30 bd b5 8f 7d 3e
       -0.056472767 -0.04077112 -0.042969175 0.24761851
000210 78 1f 54 bc 41 7d af 3e 25 03 39 3b 42 69 b1 bc
       -0.012946956 0.3427525 0.0028230634 -0.021656636
000220 de 8a d0 be c2 54 b7 bd 1c cd 82 3d ce 33 c5 be
       -0.40730947 -0.08951713 0.06386778 -0.38516086
000230 5e 69 ba bd ed 20 93 be 6e e1 44 3e e7 b7 d3 3d
       -0.091021284 -0.28736058 0.1922662 0.10337811
000240 8c 7f 68 3e 8e 44 6d 3a b9 f8 8a 3e ad df 03 3d
       0.22704905 0.0009051048 0.27142885 0.032195736
000250 61 06 6e 3e 1e 2e f6 be
       0.23244621 -0.4808206

bias f4 [3]
000000 39 ce 51 be 3b 21 99 3d 3d 3f 97 3d
       -0.20488824 0.07477041 0.073851086
